…
name: "SaCNN"
state {
  phase: TRAIN
  level: 0
  stage: ""
}
layer {
  name: "data"
  type: "CrowdData"
  top: "crowdimages"
  top: "densitymap"
  include {
    phase: TRAIN
  }
  transform_param {
    scale: 1
  }
  image_data_param {
    source: "/home/test/zll/SaCNN-CrowdCounting-Tencent_Youtu/SaCNN-master/ShanghaiTech/Part_B/train_dataall/train_B.txt"
    batch_size: 1
    shuffle: false
    is_color: true
    root_folder: "/home/test/zll/SaCNN-CrowdCounting-Tencent_Youtu/SaCNN-master/ShanghaiTech/"
    downsamp_times: 3
    base_sigma: 1.5
  }
}
layer {
  name: "conv1_1"
  type: "Convolution"
  bottom: "crowdimages"
  top: "conv1_1"
  param {
    lr_mult: 1
    decay_mult: 1
  }
  param {
    lr_mult: 2
    decay_mult: 0
  }
  convolution_param {
    num_output: 64
    pad: 1
    kernel_size: 3
    weight_filler {
      type: "gaussian"
      std: 0.01
    }
    bias_filler {
      type: "constant"
      value: 0
    }
  }
}
layer {
  name: "relu1_1"
  type: "ReLU"
  bottom: "conv1_1"
  top: "conv1_1"
}
layer {
  name: "conv1_2"
  type: "Convolution"
  bottom: "conv1_1"
  top: "conv1_2"
  param {
    lr_mult: 1
    decay_mult: 1
  }
  param {
    lr_mult: 2
    decay_mult: 0
  }
  convolution_param {
    num_output: 64
    pad: 1
    kernel_size: 3
    weight_filler {
      type: "gaussian"
      std: 0.01
    }
    bias_filler {
      type: "constant"
      value: 0
    }
  }
}
layer {
  name: "relu1_2"
  type: "ReLU"
  bottom: "conv1_2"
  top: "conv1_2"
}
layer {
  name: "pool1"
  type: "Pooling"
  bottom: "conv1_2"
  top: "pool1"
  pooling_param {
    pool: MAX
    kernel_size: 2
    stride: 2
  }
}
layer {
  name: "conv2_1"
  type: "Convolution"
  bottom: "pool1"
  top: "conv2_1"
  param {
    lr_mult: 1
    decay_mult: 1
  }
  param {
    lr_mult: 2
    decay_mult: 0
  }
  convolution_param {
    num_output: 128
    pad: 1
    kernel_size: 3
    weight_filler {
      type: "gaussian"
      std: 0.01
    }
    bias_filler {
      type: "constant"
      value: 0
    }
  }
}
layer {
  name: "relu2_1"
  type: "ReLU"
  bottom: "conv2_1"
  top: "conv2_1"
}
layer {
  name: "conv2_2"
  type: "Convolution"
  bottom: "conv2_1"
  top: "conv2_2"
  param {
    lr_mult: 1
    decay_mult: 1
  }
  param {
    lr_mult: 2
    decay_mult: 0
  }
  convolution_param {
    num_output: 128
    pad: 1
    kernel_size: 3
    weight_filler {
      type: "gaussian"
      std: 0.01
    }
    bias_filler {
      type: "constant"
      value: 0
    }
  }
}
layer {
  name: "relu2_2"
  type: "ReLU"
  bottom: "conv2_2"
  top: "conv2_2"
}
layer {
  name: "pool2"
  type: "Pooling"
  bottom: "conv2_2"
  top: "pool2"
  pooling_param {
    pool: MAX
    kernel_size: 2
    stride: 2
  }
}
layer {
  name: "conv3_1"
  type: "Convolution"
  bottom: "pool2"
  top: "conv3_1"
  param {
    lr_mult: 1
    decay_mult: 1
  }
  param {
    lr_mult: 2
    decay_mult: 0
  }
  convolution_param {
    num_output: 256
    pad: 1
    kernel_size: 3
    weight_filler {
      type: "gaussian"
      std: 0.01
    }
    bias_filler {
      type: "constant"
      value: 0
    }
  }
}
layer {
  name: "relu3_1"
  type: "ReLU"
  bottom: "conv3_1"
  top: "conv3_1"
}
layer {
  name: "conv3_2"
  type: "Convolution"
  bottom: "conv3_1"
  top: "conv3_2"
  param {
    lr_mult: 1
    decay_mult: 1
  }
  param {
    lr_mult: 2
    decay_mult: 0
  }
  convolution_param {
    num_output: 256
    pad: 1
    kernel_size: 3
    weight_filler {
      type: "gaussian"
      std: 0.01
    }
    bias_filler {
      type: "constant"
      value: 0
    }
  }
}
layer {
  name: "relu3_2"
  type: "ReLU"
  bottom: "conv3_2"
  top: "conv3_2"
}
layer {
  name: "conv3_3"
  type: "Convolution"
  bottom: "conv3_2"
  top: "conv3_3"
  param {
    lr_mult: 1
    decay_mult: 1
  }
  param {
    lr_mult: 2
    decay_mult: 0
  }
  convolution_param {
    num_output: 256
    pad: 1
    kernel_size: 3
    weight_filler {
      type: "gaussian"
      std: 0.01
    }
    bias_filler {
      type: "constant"
      value: 0
    }
  }
}
layer {
  name: "relu3_3"
  type: "ReLU"
  bottom: "conv3_3"
  top: "conv3_3"
}
layer {
  name: "pool3"
  type: "Pooling"
  bottom: "conv3_3"
  top: "pool3"
  pooling_param {
    pool: MAX
    kernel_size: 2
    stride: 2
  }
}
layer {
  name: "conv4_1"
  type: "Convolution"
  bottom: "pool3"
  top: "conv4_1"
  param {
    lr_mult: 1
    decay_mult: 1
  }
  param {
    lr_mult: 2
    decay_mult: 0
  }
  convolution_param {
    num_output: 512
    pad: 1
    kernel_size: 3
    weight_filler {
      type: "gaussian"
      std: 0.01
    }
    bias_filler {
      type: "constant"
      value: 0
    }
  }
}
layer {
  name: "relu4_1"
  type: "ReLU"
  bottom: "conv4_1"
  top: "conv4_1"
}
layer {
  name: "conv4_2"
  type: "Convolution"
  bottom: "conv4_1"
  top: "conv4_2"
  param {
    lr_mult: 1
    decay_mult: 1
  }
  param {
    lr_mult: 2
    decay_mult: 0
  }
  convolution_param {
    num_output: 512
    pad: 1
    kernel_size: 3
    weight_filler {
      type: "gaussian"
      std: 0.01
    }
    bias_filler {
      type: "constant"
      value: 0
    }
  }
}
layer {
  name: "relu4_2"
  type: "ReLU"
  bottom: "conv4_2"
  top: "conv4_2"
}
layer {
  name: "conv4_3"
  type: "Convolution"
  bottom: "conv4_2"
  top: "conv4_3"
  param {
    lr_mult: 1
    decay_mult: 1
  }
  param {
    lr_mult: 2
    decay_mult: 0
  }
  convolution_param {
    num_output: 512
    pad: 1
    kernel_size: 3
    weight_filler {
      type: "gaussian"
      std: 0.01
    }
    bias_filler {
      type: "constant"
      value: 0
    }
  }
}
layer {
  name: "relu4_3"
  type: "ReLU"
  bottom: "conv4_3"
  top: "conv4_3"
}
layer {
  name: "pool4"
  type: "Pooling"
  bottom: "conv4_3"
  top: "pool4"
  pooling_param {
    pool: MAX
    kernel_size: 2
    stride: 2
  }
}
layer {
  name: "conv5_1"
  type: "Convolution"
  bottom: "pool4"
  top: "conv5_1"
  param {
    lr_mult: 1
    decay_mult: 1
  }
  param {
    lr_mult: 2
    decay_mult: 0
  }
  convolution_param {
    num_output: 512
    pad: 1
    kernel_size: 3
    weight_filler {
      type: "gaussian"
      std: 0.01
    }
    bias_filler {
      type: "constant"
      value: 0
    }
  }
}
layer {
  name: "relu5_1"
  type: "ReLU"
  bottom: "conv5_1"
  top: "conv5_1"
}
layer {
  name: "conv5_2"
  type: "Convolution"
  bottom: "conv5_1"
  top: "conv5_2"
  param {
    lr_mult: 1
    decay_mult: 1
  }
  param {
    lr_mult: 2
    decay_mult: 0
  }
  convolution_param {
    num_output: 512
    pad: 1
    kernel_size: 3
    weight_filler {
      type: "gaussian"
      std: 0.01
    }
    bias_filler {
      type: "constant"
      value: 0
    }
  }
}
layer {
  name: "relu5_2"
  type: "ReLU"
  bottom: "conv5_2"
  top: "conv5_2"
}
layer {
  name: "conv5_3"
  type: "Convolution"
  bottom: "conv5_2"
  top: "conv5_3"
  param {
    lr_mult: 1
    decay_mult: 1
  }
  param {
    lr_mult: 2
    decay_mult: 0
  }
  convolution_param {
    num_output: 512
    pad: 1
    kernel_size: 3
    weight_filler {
      type: "gaussian"
      std: 0.01
    }
    bias_filler {
      type: "constant"
      value: 0
    }
  }
}
layer {
  name: "relu5_3"
  type: "ReLU"
  bottom: "conv5_3"
  top: "conv5_3"
}
layer {
  name: "pool5"
  type: "Pooling"
  bottom: "conv5_3"
  top: "pool5"
  pooling_param {
    pool: MAX
    kernel_size: 3
    stride: 1
    pad: 1
  }
}
layer {
  name: "conv6_1"
  type: "Convolution"
  bottom: "pool5"
  top: "conv6_1"
  param {
    lr_mult: 1
    decay_mult: 1
  }
  param {
    lr_mult: 2
    decay_mult: 0
  }
  convolution_param {
    num_output: 512
    pad: 1
    kernel_size: 3
    weight_filler {
      type: "gaussian"
      std: 0.01
    }
    bias_filler {
      type: "constant"
    }
  }
}
layer {
  name: "relu6_1"
  type: "ReLU"
  bottom: "conv6_1"
  top: "conv6_1"
}
layer {
  name: "concat1"
  type: "Concat"
  bottom: "conv5_3"
  bottom: "conv6_1"
  top: "conv_concat1"
  concat_param {
    axis: 1
  }
}
layer {
  name: "conv_concat1_2x"
  type: "Deconvolution"
  bottom: "conv_concat1"
  top: "conv_concat1_2x"
  param {
    lr_mult: 0
    decay_mult: 0
  }
  convolution_param {
    num_output: 512
    bias_term: false
    pad: 0
    kernel_size: 2
    group: 512
    stride: 2
    weight_filler {
      type: "constant"
      value: 1
    }
  }
}
layer {
  name: "concat"
  type: "Concat"
  bottom: "conv4_3"
  bottom: "conv_concat1_2x"
  top: "conv_concat"
  concat_param {
    axis: 1
  }
}
layer {
  name: "p_conv1"
  type: "Convolution"
  bottom: "conv_concat"
  top: "p_conv1"
  param {
    lr_mult: 1
  }
  param {
    lr_mult: 2
  }
  convolution_param {
    num_output: 512
    pad: 1
    kernel_size: 3
    stride: 1
    weight_filler {
      type: "gaussian"
      std: 0.01
    }
    bias_filler {
      type: "constant"
      value: 0
    }
  }
}
layer {
  name: "relu_p_conv1"
  type: "ReLU"
  bottom: "p_conv1"
  top: "p_conv1"
}
layer {
  name: "p_conv2"
  type: "Convolution"
  bottom: "p_conv1"
  top: "p_conv2"
  param {
    lr_mult: 1
  }
  param {
    lr_mult: 2
  }
  convolution_param {
    num_output: 256
    pad: 1
    kernel_size: 3
    stride: 1
    weight_filler {
      type: "gaussian"
      std: 0.01
    }
    bias_filler {
      type: "constant"
      value: 0
    }
  }
}
layer {
  name: "relu_p_conv2"
  type: "ReLU"
  bottom: "p_conv2"
  top: "p_conv2"
}
layer {
  name: "p_conv3"
  type: "Convolution"
  bottom: "p_conv2"
  top: "estdmap"
  param {
    lr_mult: 10
    decay_mult: 1
  }
  param {
    lr_mult: 20
    decay_mult: 0
  }
  convolution_param {
    num_output: 1
    kernel_size: 1
    weight_filler {
      type: "gaussian"
      std: 0.01
    }
    bias_filler {
      type: "constant"
      value: 0
    }
  }
}
layer {
  name: "GTCount"
  type: "Reduction"
  bottom: "densitymap"
  top: "GTCount"
  reduction_param {
    operation: SUM
    axis: 1
  }
}
layer {
  name: "EstdCount"
  type: "Reduction"
  bottom: "estdmap"
  top: "EstdCount"
  reduction_param {
    operation: SUM
    axis: 1
  }
}
layer {
  name: "loss_map"
  type: "EuclideanLoss"
  bottom: "estdmap"
  bottom: "densitymap"
  top: "loss_map"
}
layer {
  name: "mse_count"
  type: "Python"
  bottom: "EstdCount"
  bottom: "GTCount"
  top: "mse_count"
  python_param {
    module: "pyloss"
    layer: "MseMetricLayer"
  }
}
layer {
  name: "mae_count"
  type: "Python"
  bottom: "EstdCount"
  bottom: "GTCount"
  top: "mae_count"
  python_param {
    module: "pyloss"
    layer: "MaeMetricLayer"
  }
}
I0824 11:08:01.397891  9576 layer_factory.hpp:77] Creating layer data
I0824 11:08:01.397922  9576 net.cpp:84] Creating Layer data
I0824 11:08:01.397928  9576 net.cpp:380] data -> crowdimages
I0824 11:08:01.397950  9576 net.cpp:380] data -> densitymap
I0824 11:08:01.397969  9576 crowd_data_layer.cpp:276] Opening file /home/test/zll/SaCNN-CrowdCounting-Tencent_Youtu/SaCNN-master/ShanghaiTech/Part_B/train_dataall/train_B.txt
I0824 11:08:01.399161  9576 crowd_data_layer.cpp:292] A total of 2400 crowd images.
I0824 11:08:01.403527  9576 crowd_data_layer.cpp:305] output crowd image size: 1,3,576,768
I0824 11:08:01.403589  9576 crowd_data_layer.cpp:314] output density map size: 1,1,72,96
I0824 11:08:01.415022  9576 net.cpp:122] Setting up data
I0824 11:08:01.415048  9576 net.cpp:129] Top shape: 1 3 576 768 (1327104)
I0824 11:08:01.415053  9576 net.cpp:129] Top shape: 1 1 72 96 (6912)
I0824 11:08:01.415055  9576 net.cpp:137] Memory required for data: 5336064
I0824 11:08:01.415062  9576 layer_factory.hpp:77] Creating layer densitymap_data_1_split
I0824 11:08:01.415096  9576 net.cpp:84] Creating Layer densitymap_data_1_split
I0824 11:08:01.415102  9576 net.cpp:406] densitymap_data_1_split <- densitymap
I0824 11:08:01.415113  9576 net.cpp:380] densitymap_data_1_split -> densitymap_data_1_split_0
I0824 11:08:01.415123  9576 net.cpp:380] densitymap_data_1_split -> densitymap_data_1_split_1
I0824 11:08:01.415163  9576 net.cpp:122] Setting up densitymap_data_1_split
I0824 11:08:01.415170  9576 net.cpp:129] Top shape: 1 1 72 96 (6912)
I0824 11:08:01.415176  9576 net.cpp:129] Top shape: 1 1 72 96 (6912)
I0824 11:08:01.415180  9576 net.cpp:137] Memory required for data: 5391360
I0824 11:08:01.415184  9576 layer_factory.hpp:77] Creating layer conv1_1
I0824 11:08:01.415197  9576 net.cpp:84] Creating Layer conv1_1
I0824 11:08:01.415200  9576 net.cpp:406] conv1_1 <- crowdimages
I0824 11:08:01.415206  9576 net.cpp:380] conv1_1 -> conv1_1
I0824 11:08:01.417012  9576 net.cpp:122] Setting up conv1_1
I0824 11:08:01.417026  9576 net.cpp:129] Top shape: 1 64 576 768 (28311552)
I0824 11:08:01.417029  9576 net.cpp:137] Memory required for data: 118637568
I0824 11:08:01.417044  9576 layer_factory.hpp:77] Creating layer relu1_1
I0824 11:08:01.417052  9576 net.cpp:84] Creating Layer relu1_1
I0824 11:08:01.417055  9576 net.cpp:406] relu1_1 <- conv1_1
I0824 11:08:01.417059  9576 net.cpp:367] relu1_1 -> conv1_1 (in-place)
I0824 11:08:01.417065  9576 net.cpp:122] Setting up relu1_1
I0824 11:08:01.417081  9576 net.cpp:129] Top shape: 1 64 576 768 (28311552)
I0824 11:08:01.417084  9576 net.cpp:137] Memory required for data: 231883776
I0824 11:08:01.417089  9576 layer_factory.hpp:77] Creating layer conv1_2
I0824 11:08:01.417100  9576 net.cpp:84] Creating Layer conv1_2
I0824 11:08:01.417104  9576 net.cpp:406] conv1_2 <- conv1_1
I0824 11:08:01.417109  9576 net.cpp:380] conv1_2 -> conv1_2
I0824 11:08:01.419137  9576 net.cpp:122] Setting up conv1_2
I0824 11:08:01.419157  9576 net.cpp:129] Top shape: 1 64 576 768 (28311552)
I0824 11:08:01.419159  9576 net.cpp:137] Memory required for data: 345129984
I0824 11:08:01.419170  9576 layer_factory.hpp:77] Creating layer relu1_2
I0824 11:08:01.419196  9576 net.cpp:84] Creating Layer relu1_2
I0824 11:08:01.419201  9576 net.cpp:406] relu1_2 <- conv1_2
I0824 11:08:01.419207  9576 net.cpp:367] relu1_2 -> conv1_2 (in-place)
I0824 11:08:01.419215  9576 net.cpp:122] Setting up relu1_2
I0824 11:08:01.419219  9576 net.cpp:129] Top shape: 1 64 576 768 (28311552)
I0824 11:08:01.419220  9576 net.cpp:137] Memory required for data: 458376192
I0824 11:08:01.419224  9576 layer_factory.hpp:77] Creating layer pool1
I0824 11:08:01.419229  9576 net.cpp:84] Creating Layer pool1
I0824 11:08:01.419230  9576 net.cpp:406] pool1 <- conv1_2
I0824 11:08:01.419234  9576 net.cpp:380] pool1 -> pool1
I0824 11:08:01.419287  9576 net.cpp:122] Setting up pool1
I0824 11:08:01.419296  9576 net.cpp:129] Top shape: 1 64 288 384 (7077888)
I0824 11:08:01.419303  9576 net.cpp:137] Memory required for data: 486687744
I0824 11:08:01.419308  9576 layer_factory.hpp:77] Creating layer conv2_1
I0824 11:08:01.419322  9576 net.cpp:84] Creating Layer conv2_1
I0824 11:08:01.419327  9576 net.cpp:406] conv2_1 <- pool1
I0824 11:08:01.419334  9576 net.cpp:380] conv2_1 -> conv2_1
I0824 11:08:01.421051  9576 net.cpp:122] Setting up conv2_1
I0824 11:08:01.421072  9576 net.cpp:129] Top shape: 1 128 288 384 (14155776)
I0824 11:08:01.421077  9576 net.cpp:137] Memory required for data: 543310848
I0824 11:08:01.421094  9576 layer_factory.hpp:77] Creating layer relu2_1
I0824 11:08:01.421109  9576 net.cpp:84] Creating Layer relu2_1
I0824 11:08:01.421115  9576 net.cpp:406] relu2_1 <- conv2_1
I0824 11:08:01.421124  9576 net.cpp:367] relu2_1 -> conv2_1 (in-place)
I0824 11:08:01.421135  9576 net.cpp:122] Setting up relu2_1
I0824 11:08:01.421142  9576 net.cpp:129] Top shape: 1 128 288 384 (14155776)
I0824 11:08:01.421147  9576 net.cpp:137] Memory required for data: 599933952
I0824 11:08:01.421151  9576 layer_factory.hpp:77] Creating layer conv2_2
I0824 11:08:01.421164  9576 net.cpp:84] Creating Layer conv2_2
I0824 11:08:01.421169  9576 net.cpp:406] conv2_2 <- conv2_1
I0824 11:08:01.421205  9576 net.cpp:380] conv2_2 -> conv2_2
I0824 11:08:01.422802  9576 net.cpp:122] Setting up conv2_2
I0824 11:08:01.422822  9576 net.cpp:129] Top shape: 1 128 288 384 (14155776)
I0824 11:08:01.422827  9576 net.cpp:137] Memory required for data: 656557056
I0824 11:08:01.422837  9576 layer_factory.hpp:77] Creating layer relu2_2
I0824 11:08:01.422848  9576 net.cpp:84] Creating Layer relu2_2
I0824 11:08:01.422854  9576 net.cpp:406] relu2_2 <- conv2_2
I0824 11:08:01.422864  9576 net.cpp:367] relu2_2 -> conv2_2 (in-place)
I0824 11:08:01.422874  9576 net.cpp:122] Setting up relu2_2
I0824 11:08:01.422881  9576 net.cpp:129] Top shape: 1 128 288 384 (14155776)
I0824 11:08:01.422886  9576 net.cpp:137] Memory required for data: 713180160
I0824 11:08:01.422890  9576 layer_factory.hpp:77] Creating layer pool2
I0824 11:08:01.422899  9576 net.cpp:84] Creating Layer pool2
I0824 11:08:01.422904  9576 net.cpp:406] pool2 <- conv2_2
I0824 11:08:01.422910  9576 net.cpp:380] pool2 -> pool2
I0824 11:08:01.422955  9576 net.cpp:122] Setting up pool2
I0824 11:08:01.422962  9576 net.cpp:129] Top shape: 1 128 144 192 (3538944)
I0824 11:08:01.422967  9576 net.cpp:137] Memory required for data: 727335936
I0824 11:08:01.422971  9576 layer_factory.hpp:77] Creating layer conv3_1
I0824 11:08:01.422986  9576 net.cpp:84] Creating Layer conv3_1
I0824 11:08:01.422991  9576 net.cpp:406] conv3_1 <- pool2
I0824 11:08:01.422999  9576 net.cpp:380] conv3_1 -> conv3_1
I0824 11:08:01.428314  9576 net.cpp:122] Setting up conv3_1
I0824 11:08:01.428344  9576 net.cpp:129] Top shape: 1 256 144 192 (7077888)
I0824 11:08:01.428349  9576 net.cpp:137] Memory required for data: 755647488
I0824 11:08:01.428369  9576 layer_factory.hpp:77] Creating layer relu3_1
I0824 11:08:01.428383  9576 net.cpp:84] Creating Layer relu3_1
I0824 11:08:01.428392  9576 net.cpp:406] relu3_1 <- conv3_1
I0824 11:08:01.428405  9576 net.cpp:367] relu3_1 -> conv3_1 (in-place)
I0824 11:08:01.428418  9576 net.cpp:122] Setting up relu3_1
I0824 11:08:01.428426  9576 net.cpp:129] Top shape: 1 256 144 192 (7077888)
I0824 11:08:01.428431  9576 net.cpp:137] Memory required for data: 783959040
I0824 11:08:01.428436  9576 layer_factory.hpp:77] Creating layer conv3_2
I0824 11:08:01.428452  9576 net.cpp:84] Creating Layer conv3_2
I0824 11:08:01.428458  9576 net.cpp:406] conv3_2 <- conv3_1
I0824 11:08:01.428467  9576 net.cpp:380] conv3_2 -> conv3_2
I0824 11:08:01.435575  9576 net.cpp:122] Setting up conv3_2
I0824 11:08:01.435603  9576 net.cpp:129] Top shape: 1 256 144 192 (7077888)
I0824 11:08:01.435608  9576 net.cpp:137] Memory required for data: 812270592
I0824 11:08:01.435621  9576 layer_factory.hpp:77] Creating layer relu3_2
I0824 11:08:01.435636  9576 net.cpp:84] Creating Layer relu3_2
I0824 11:08:01.435643  9576 net.cpp:406] relu3_2 <- conv3_2
I0824 11:08:01.435657  9576 net.cpp:367] relu3_2 -> conv3_2 (in-place)
I0824 11:08:01.435668  9576 net.cpp:122] Setting up relu3_2
I0824 11:08:01.435675  9576 net.cpp:129] Top shape: 1 256 144 192 (7077888)
I0824 11:08:01.435681  9576 net.cpp:137] Memory required for data: 840582144
I0824 11:08:01.435686  9576 layer_factory.hpp:77] Creating layer conv3_3
I0824 11:08:01.435703  9576 net.cpp:84] Creating Layer conv3_3
I0824 11:08:01.435710  9576 net.cpp:406] conv3_3 <- conv3_2
I0824 11:08:01.435719  9576 net.cpp:380] conv3_3 -> conv3_3
I0824 11:08:01.443447  9576 net.cpp:122] Setting up conv3_3
I0824 11:08:01.443500  9576 net.cpp:129] Top shape: 1 256 144 192 (7077888)
I0824 11:08:01.443506  9576 net.cpp:137] Memory required for data: 868893696
I0824 11:08:01.443526  9576 layer_factory.hpp:77] Creating layer relu3_3
I0824 11:08:01.443547  9576 net.cpp:84] Creating Layer relu3_3
I0824 11:08:01.443557  9576 net.cpp:406] relu3_3 <- conv3_3
I0824 11:08:01.443570  9576 net.cpp:367] relu3_3 -> conv3_3 (in-place)
I0824 11:08:01.443588  9576 net.cpp:122] Setting up relu3_3
I0824 11:08:01.443596  9576 net.cpp:129] Top shape: 1 256 144 192 (7077888)
I0824 11:08:01.443603  9576 net.cpp:137] Memory required for data: 897205248
I0824 11:08:01.443656  9576 layer_factory.hpp:77] Creating layer pool3
I0824 11:08:01.443675  9576 net.cpp:84] Creating Layer pool3
I0824 11:08:01.443684  9576 net.cpp:406] pool3 <- conv3_3
I0824 11:08:01.443696  9576 net.cpp:380] pool3 -> pool3
I0824 11:08:01.443756  9576 net.cpp:122] Setting up pool3
I0824 11:08:01.443768  9576 net.cpp:129] Top shape: 1 256 72 96 (1769472)
I0824 11:08:01.443776  9576 net.cpp:137] Memory required for data: 904283136
I0824 11:08:01.443780  9576 layer_factory.hpp:77] Creating layer conv4_1
I0824 11:08:01.443800  9576 net.cpp:84] Creating Layer conv4_1
I0824 11:08:01.443805  9576 net.cpp:406] conv4_1 <- pool3
I0824 11:08:01.443814  9576 net.cpp:380] conv4_1 -> conv4_1
I0824 11:08:01.458694  9576 net.cpp:122] Setting up conv4_1
I0824 11:08:01.458727  9576 net.cpp:129] Top shape: 1 512 72 96 (3538944)
I0824 11:08:01.458735  9576 net.cpp:137] Memory required for data: 918438912
I0824 11:08:01.458750  9576 layer_factory.hpp:77] Creating layer relu4_1
I0824 11:08:01.458765  9576 net.cpp:84] Creating Layer relu4_1
I0824 11:08:01.458775  9576 net.cpp:406] relu4_1 <- conv4_1
I0824 11:08:01.458786  9576 net.cpp:367] relu4_1 -> conv4_1 (in-place)
I0824 11:08:01.458801  9576 net.cpp:122] Setting up relu4_1
I0824 11:08:01.458807  9576 net.cpp:129] Top shape: 1 512 72 96 (3538944)
I0824 11:08:01.458813  9576 net.cpp:137] Memory required for data: 932594688
I0824 11:08:01.458818  9576 layer_factory.hpp:77] Creating layer conv4_2
I0824 11:08:01.458832  9576 net.cpp:84] Creating Layer conv4_2
I0824 11:08:01.458839  9576 net.cpp:406] conv4_2 <- conv4_1
I0824 11:08:01.458848  9576 net.cpp:380] conv4_2 -> conv4_2
I0824 11:08:01.486264  9576 net.cpp:122] Setting up conv4_2
I0824 11:08:01.486291  9576 net.cpp:129] Top shape: 1 512 72 96 (3538944)
I0824 11:08:01.486295  9576 net.cpp:137] Memory required for data: 946750464
I0824 11:08:01.486310  9576 layer_factory.hpp:77] Creating layer relu4_2
I0824 11:08:01.486318  9576 net.cpp:84] Creating Layer relu4_2
I0824 11:08:01.486323  9576 net.cpp:406] relu4_2 <- conv4_2
I0824 11:08:01.486330  9576 net.cpp:367] relu4_2 -> conv4_2 (in-place)
I0824 11:08:01.486340  9576 net.cpp:122] Setting up relu4_2
I0824 11:08:01.486344  9576 net.cpp:129] Top shape: 1 512 72 96 (3538944)
I0824 11:08:01.486347  9576 net.cpp:137] Memory required for data: 960906240
I0824 11:08:01.486351  9576 layer_factory.hpp:77] Creating layer conv4_3
I0824 11:08:01.486358  9576 net.cpp:84] Creating Layer conv4_3
I0824 11:08:01.486361  9576 net.cpp:406] conv4_3 <- conv4_2
I0824 11:08:01.486366  9576 net.cpp:380] conv4_3 -> conv4_3
I0824 11:08:01.511669  9576 net.cpp:122] Setting up conv4_3
I0824 11:08:01.511711  9576 net.cpp:129] Top shape: 1 512 72 96 (3538944)
I0824 11:08:01.511719  9576 net.cpp:137] Memory required for data: 975062016
I0824 11:08:01.511734  9576 layer_factory.hpp:77] Creating layer relu4_3
I0824 11:08:01.511747  9576 net.cpp:84] Creating Layer relu4_3
I0824 11:08:01.511759  9576 net.cpp:406] relu4_3 <- conv4_3
I0824 11:08:01.511770  9576 net.cpp:367] relu4_3 -> conv4_3 (in-place)
I0824 11:08:01.511785  9576 net.cpp:122] Setting up relu4_3
I0824 11:08:01.511793  9576 net.cpp:129] Top shape: 1 512 72 96 (3538944)
I0824 11:08:01.511797  9576 net.cpp:137] Memory required for data: 989217792
I0824 11:08:01.511802  9576 layer_factory.hpp:77] Creating layer conv4_3_relu4_3_0_split
I0824 11:08:01.511812  9576 net.cpp:84] Creating Layer conv4_3_relu4_3_0_split
I0824 11:08:01.511818  9576 net.cpp:406] conv4_3_relu4_3_0_split <- conv4_3
I0824 11:08:01.511826  9576 net.cpp:380] conv4_3_relu4_3_0_split -> conv4_3_relu4_3_0_split_0
I0824 11:08:01.511837  9576 net.cpp:380] conv4_3_relu4_3_0_split -> conv4_3_relu4_3_0_split_1
I0824 11:08:01.511889  9576 net.cpp:122] Setting up conv4_3_relu4_3_0_split
I0824 11:08:01.511901  9576 net.cpp:129] Top shape: 1 512 72 96 (3538944)
I0824 11:08:01.511909  9576 net.cpp:129] Top shape: 1 512 72 96 (3538944)
I0824 11:08:01.511914  9576 net.cpp:137] Memory required for data: 1017529344
I0824 11:08:01.511920  9576 layer_factory.hpp:77] Creating layer pool4
I0824 11:08:01.511957  9576 net.cpp:84] Creating Layer pool4
I0824 11:08:01.511966  9576 net.cpp:406] pool4 <- conv4_3_relu4_3_0_split_0
I0824 11:08:01.511976  9576 net.cpp:380] pool4 -> pool4
I0824 11:08:01.512027  9576 net.cpp:122] Setting up pool4
I0824 11:08:01.512037  9576 net.cpp:129] Top shape: 1 512 36 48 (884736)
I0824 11:08:01.512042  9576 net.cpp:137] Memory required for data: 1021068288
I0824 11:08:01.512048  9576 layer_factory.hpp:77] Creating layer conv5_1
I0824 11:08:01.512063  9576 net.cpp:84] Creating Layer conv5_1
I0824 11:08:01.512069  9576 net.cpp:406] conv5_1 <- pool4
I0824 11:08:01.512080  9576 net.cpp:380] conv5_1 -> conv5_1
I0824 11:08:01.537389  9576 net.cpp:122] Setting up conv5_1
I0824 11:08:01.537420  9576 net.cpp:129] Top shape: 1 512 36 48 (884736)
I0824 11:08:01.537423  9576 net.cpp:137] Memory required for data: 1024607232
I0824 11:08:01.537434  9576 layer_factory.hpp:77] Creating layer relu5_1
I0824 11:08:01.537444  9576 net.cpp:84] Creating Layer relu5_1
I0824 11:08:01.537448  9576 net.cpp:406] relu5_1 <- conv5_1
I0824 11:08:01.537454  9576 net.cpp:367] relu5_1 -> conv5_1 (in-place)
I0824 11:08:01.537463  9576 net.cpp:122] Setting up relu5_1
I0824 11:08:01.537470  9576 net.cpp:129] Top shape: 1 512 36 48 (884736)
I0824 11:08:01.537472  9576 net.cpp:137] Memory required for data: 1028146176
I0824 11:08:01.537475  9576 layer_factory.hpp:77] Creating layer conv5_2
I0824 11:08:01.537484  9576 net.cpp:84] Creating Layer conv5_2
I0824 11:08:01.537488  9576 net.cpp:406] conv5_2 <- conv5_1
I0824 11:08:01.537493  9576 net.cpp:380] conv5_2 -> conv5_2
I0824 11:08:01.562300  9576 net.cpp:122] Setting up conv5_2
I0824 11:08:01.562378  9576 net.cpp:129] Top shape: 1 512 36 48 (884736)
I0824 11:08:01.562392  9576 net.cpp:137] Memory required for data: 1031685120
I0824 11:08:01.562419  9576 layer_factory.hpp:77] Creating layer relu5_2
I0824 11:08:01.562445  9576 net.cpp:84] Creating Layer relu5_2
I0824 11:08:01.562458  9576 net.cpp:406] relu5_2 <- conv5_2
I0824 11:08:01.562474  9576 net.cpp:367] relu5_2 -> conv5_2 (in-place)
I0824 11:08:01.562494  9576 net.cpp:122] Setting up relu5_2
I0824 11:08:01.562502  9576 net.cpp:129] Top shape: 1 512 36 48 (884736)
I0824 11:08:01.562507  9576 net.cpp:137] Memory required for data: 1035224064
I0824 11:08:01.562513  9576 layer_factory.hpp:77] Creating layer conv5_3
I0824 11:08:01.562535  9576 net.cpp:84] Creating Layer conv5_3
I0824 11:08:01.562541  9576 net.cpp:406] conv5_3 <- conv5_2
I0824 11:08:01.562552  9576 net.cpp:380] conv5_3 -> conv5_3
I0824 11:08:01.588053  9576 net.cpp:122] Setting up conv5_3
I0824 11:08:01.588081  9576 net.cpp:129] Top shape: 1 512 36 48 (884736)
I0824 11:08:01.588085  9576 net.cpp:137] Memory required for data: 1038763008
I0824 11:08:01.588095  9576 layer_factory.hpp:77] Creating layer relu5_3
I0824 11:08:01.588106  9576 net.cpp:84] Creating Layer relu5_3
I0824 11:08:01.588112  9576 net.cpp:406] relu5_3 <- conv5_3
I0824 11:08:01.588119  9576 net.cpp:367] relu5_3 -> conv5_3 (in-place)
I0824 11:08:01.588129  9576 net.cpp:122] Setting up relu5_3
I0824 11:08:01.588133  9576 net.cpp:129] Top shape: 1 512 36 48 (884736)
I0824 11:08:01.588135  9576 net.cpp:137] Memory required for data: 1042301952
I0824 11:08:01.588138  9576 layer_factory.hpp:77] Creating layer conv5_3_relu5_3_0_split
I0824 11:08:01.588143  9576 net.cpp:84] Creating Layer conv5_3_relu5_3_0_split
I0824 11:08:01.588146  9576 net.cpp:406] conv5_3_relu5_3_0_split <- conv5_3
I0824 11:08:01.588150  9576 net.cpp:380] conv5_3_relu5_3_0_split -> conv5_3_relu5_3_0_split_0
I0824 11:08:01.588158  9576 net.cpp:380] conv5_3_relu5_3_0_split -> conv5_3_relu5_3_0_split_1
I0824 11:08:01.588193  9576 net.cpp:122] Setting up conv5_3_relu5_3_0_split
I0824 11:08:01.588202  9576 net.cpp:129] Top shape: 1 512 36 48 (884736)
I0824 11:08:01.588207  9576 net.cpp:129] Top shape: 1 512 36 48 (884736)
I0824 11:08:01.588210  9576 net.cpp:137] Memory required for data: 1049379840
I0824 11:08:01.588212  9576 layer_factory.hpp:77] Creating layer pool5
I0824 11:08:01.588217  9576 net.cpp:84] Creating Layer pool5
I0824 11:08:01.588237  9576 net.cpp:406] pool5 <- conv5_3_relu5_3_0_split_0
I0824 11:08:01.588246  9576 net.cpp:380] pool5 -> pool5
I0824 11:08:01.588279  9576 net.cpp:122] Setting up pool5
I0824 11:08:01.588285  9576 net.cpp:129] Top shape: 1 512 36 48 (884736)
I0824 11:08:01.588289  9576 net.cpp:137] Memory required for data: 1052918784
I0824 11:08:01.588294  9576 layer_factory.hpp:77] Creating layer conv6_1
I0824 11:08:01.588305  9576 net.cpp:84] Creating Layer conv6_1
I0824 11:08:01.588310  9576 net.cpp:406] conv6_1 <- pool5
I0824 11:08:01.588315  9576 net.cpp:380] conv6_1 -> conv6_1
I0824 11:08:01.612154  9576 net.cpp:122] Setting up conv6_1
I0824 11:08:01.612180  9576 net.cpp:129] Top shape: 1 512 36 48 (884736)
I0824 11:08:01.612184  9576 net.cpp:137] Memory required for data: 1056457728
I0824 11:08:01.612193  9576 layer_factory.hpp:77] Creating layer relu6_1
I0824 11:08:01.612202  9576 net.cpp:84] Creating Layer relu6_1
I0824 11:08:01.612207  9576 net.cpp:406] relu6_1 <- conv6_1
I0824 11:08:01.612215  9576 net.cpp:367] relu6_1 -> conv6_1 (in-place)
I0824 11:08:01.612221  9576 net.cpp:122] Setting up relu6_1
I0824 11:08:01.612226  9576 net.cpp:129] Top shape: 1 512 36 48 (884736)
I0824 11:08:01.612229  9576 net.cpp:137] Memory required for data: 1059996672
I0824 11:08:01.612231  9576 layer_factory.hpp:77] Creating layer concat1
I0824 11:08:01.612237  9576 net.cpp:84] Creating Layer concat1
I0824 11:08:01.612241  9576 net.cpp:406] concat1 <- conv5_3_relu5_3_0_split_1
I0824 11:08:01.612246  9576 net.cpp:406] concat1 <- conv6_1
I0824 11:08:01.612249  9576 net.cpp:380] concat1 -> conv_concat1
I0824 11:08:01.612277  9576 net.cpp:122] Setting up concat1
I0824 11:08:01.612282  9576 net.cpp:129] Top shape: 1 1024 36 48 (1769472)
I0824 11:08:01.612287  9576 net.cpp:137] Memory required for data: 1067074560
I0824 11:08:01.612291  9576 layer_factory.hpp:77] Creating layer conv_concat1_2x
I0824 11:08:01.612303  9576 net.cpp:84] Creating Layer conv_concat1_2x
I0824 11:08:01.612308  9576 net.cpp:406] conv_concat1_2x <- conv_concat1
I0824 11:08:01.612313  9576 net.cpp:380] conv_concat1_2x -> conv_concat1_2x
I0824 11:08:01.612464  9576 net.cpp:122] Setting up conv_concat1_2x
I0824 11:08:01.612471  9576 net.cpp:129] Top shape: 1 512 72 96 (3538944)
I0824 11:08:01.612474  9576 net.cpp:137] Memory required for data: 1081230336
I0824 11:08:01.612478  9576 layer_factory.hpp:77] Creating layer concat
I0824 11:08:01.612483  9576 net.cpp:84] Creating Layer concat
I0824 11:08:01.612488  9576 net.cpp:406] concat <- conv4_3_relu4_3_0_split_1
I0824 11:08:01.612490  9576 net.cpp:406] concat <- conv_concat1_2x
I0824 11:08:01.612494  9576 net.cpp:380] concat -> conv_concat
I0824 11:08:01.612514  9576 net.cpp:122] Setting up concat
I0824 11:08:01.612517  9576 net.cpp:129] Top shape: 1 1024 72 96 (7077888)
I0824 11:08:01.612520  9576 net.cpp:137] Memory required for data: 1109541888
I0824 11:08:01.612522  9576 layer_factory.hpp:77] Creating layer p_conv1
I0824 11:08:01.612529  9576 net.cpp:84] Creating Layer p_conv1
I0824 11:08:01.612532  9576 net.cpp:406] p_conv1 <- conv_concat
I0824 11:08:01.612537  9576 net.cpp:380] p_conv1 -> p_conv1
I0824 11:08:01.662021  9576 net.cpp:122] Setting up p_conv1
I0824 11:08:01.662056  9576 net.cpp:129] Top shape: 1 512 72 96 (3538944)
I0824 11:08:01.662060  9576 net.cpp:137] Memory required for data: 1123697664
I0824 11:08:01.662070  9576 layer_factory.hpp:77] Creating layer relu_p_conv1
I0824 11:08:01.662081  9576 net.cpp:84] Creating Layer relu_p_conv1
I0824 11:08:01.662084  9576 net.cpp:406] relu_p_conv1 <- p_conv1
I0824 11:08:01.662093  9576 net.cpp:367] relu_p_conv1 -> p_conv1 (in-place)
I0824 11:08:01.662102  9576 net.cpp:122] Setting up relu_p_conv1
I0824 11:08:01.662107  9576 net.cpp:129] Top shape: 1 512 72 96 (3538944)
I0824 11:08:01.662111  9576 net.cpp:137] Memory required for data: 1137853440
I0824 11:08:01.662113  9576 layer_factory.hpp:77] Creating layer p_conv2
I0824 11:08:01.662123  9576 net.cpp:84] Creating Layer p_conv2
I0824 11:08:01.662127  9576 net.cpp:406] p_conv2 <- p_conv1
I0824 11:08:01.662133  9576 net.cpp:380] p_conv2 -> p_conv2
I0824 11:08:01.675436  9576 net.cpp:122] Setting up p_conv2
I0824 11:08:01.675468  9576 net.cpp:129] Top shape: 1 256 72 96 (1769472)
I0824 11:08:01.675472  9576 net.cpp:137] Memory required for data: 1144931328
I0824 11:08:01.675487  9576 layer_factory.hpp:77] Creating layer relu_p_conv2
I0824 11:08:01.675498  9576 net.cpp:84] Creating Layer relu_p_conv2
I0824 11:08:01.675503  9576 net.cpp:406] relu_p_conv2 <- p_conv2
I0824 11:08:01.675510  9576 net.cpp:367] relu_p_conv2 -> p_conv2 (in-place)
I0824 11:08:01.675520  9576 net.cpp:122] Setting up relu_p_conv2
I0824 11:08:01.675525  9576 net.cpp:129] Top shape: 1 256 72 96 (1769472)
I0824 11:08:01.675529  9576 net.cpp:137] Memory required for data: 1152009216
I0824 11:08:01.675530  9576 layer_factory.hpp:77] Creating layer p_conv3
I0824 11:08:01.675540  9576 net.cpp:84] Creating Layer p_conv3
I0824 11:08:01.675544  9576 net.cpp:406] p_conv3 <- p_conv2
I0824 11:08:01.675549  9576 net.cpp:380] p_conv3 -> estdmap
I0824 11:08:01.675757  9576 net.cpp:122] Setting up p_conv3
I0824 11:08:01.675767  9576 net.cpp:129] Top shape: 1 1 72 96 (6912)
I0824 11:08:01.675770  9576 net.cpp:137] Memory required for data: 1152036864
I0824 11:08:01.675776  9576 layer_factory.hpp:77] Creating layer estdmap_p_conv3_0_split
I0824 11:08:01.675782  9576 net.cpp:84] Creating Layer estdmap_p_conv3_0_split
I0824 11:08:01.675786  9576 net.cpp:406] estdmap_p_conv3_0_split <- estdmap
I0824 11:08:01.675791  9576 net.cpp:380] estdmap_p_conv3_0_split -> estdmap_p_conv3_0_split_0
I0824 11:08:01.675797  9576 net.cpp:380] estdmap_p_conv3_0_split -> estdmap_p_conv3_0_split_1
I0824 11:08:01.675832  9576 net.cpp:122] Setting up estdmap_p_conv3_0_split
I0824 11:08:01.675842  9576 net.cpp:129] Top shape: 1 1 72 96 (6912)
I0824 11:08:01.675845  9576 net.cpp:129] Top shape: 1 1 72 96 (6912)
I0824 11:08:01.675848  9576 net.cpp:137] Memory required for data: 1152092160
I0824 11:08:01.675850  9576 layer_factory.hpp:77] Creating layer GTCount
I0824 11:08:01.675855  9576 net.cpp:84] Creating Layer GTCount
I0824 11:08:01.675859  9576 net.cpp:406] GTCount <- densitymap_data_1_split_0
I0824 11:08:01.675864  9576 net.cpp:380] GTCount -> GTCount
I0824 11:08:01.675911  9576 net.cpp:122] Setting up GTCount
I0824 11:08:01.675917  9576 net.cpp:129] Top shape: 1 (1)
I0824 11:08:01.675920  9576 net.cpp:137] Memory required for data: 1152092164
I0824 11:08:01.675923  9576 layer_factory.hpp:77] Creating layer GTCount_GTCount_0_split
I0824 11:08:01.675931  9576 net.cpp:84] Creating Layer GTCount_GTCount_0_split
I0824 11:08:01.675935  9576 net.cpp:406] GTCount_GTCount_0_split <- GTCount
I0824 11:08:01.675938  9576 net.cpp:380] GTCount_GTCount_0_split -> GTCount_GTCount_0_split_0
I0824 11:08:01.675945  9576 net.cpp:380] GTCount_GTCount_0_split -> GTCount_GTCount_0_split_1
I0824 11:08:01.675971  9576 net.cpp:122] Setting up GTCount_GTCount_0_split
I0824 11:08:01.675978  9576 net.cpp:129] Top shape: 1 (1)
I0824 11:08:01.675982  9576 net.cpp:129] Top shape: 1 (1)
I0824 11:08:01.675984  9576 net.cpp:137] Memory required for data: 1152092172
I0824 11:08:01.675987  9576 layer_factory.hpp:77] Creating layer EstdCount
I0824 11:08:01.675992  9576 net.cpp:84] Creating Layer EstdCount
I0824 11:08:01.675994  9576 net.cpp:406] EstdCount <- estdmap_p_conv3_0_split_0
I0824 11:08:01.675998  9576 net.cpp:380] EstdCount -> EstdCount
I0824 11:08:01.676039  9576 net.cpp:122] Setting up EstdCount
I0824 11:08:01.676045  9576 net.cpp:129] Top shape: 1 (1)
I0824 11:08:01.676048  9576 net.cpp:137] Memory required for data: 1152092176
I0824 11:08:01.676050  9576 layer_factory.hpp:77] Creating layer EstdCount_EstdCount_0_split
I0824 11:08:01.676054  9576 net.cpp:84] Creating Layer EstdCount_EstdCount_0_split
I0824 11:08:01.676056  9576 net.cpp:406] EstdCount_EstdCount_0_split <- EstdCount
I0824 11:08:01.676061  9576 net.cpp:380] EstdCount_EstdCount_0_split -> EstdCount_EstdCount_0_split_0
I0824 11:08:01.676066  9576 net.cpp:380] EstdCount_EstdCount_0_split -> EstdCount_EstdCount_0_split_1
I0824 11:08:01.676095  9576 net.cpp:122] Setting up EstdCount_EstdCount_0_split
I0824 11:08:01.676115  9576 net.cpp:129] Top shape: 1 (1)
I0824 11:08:01.676120  9576 net.cpp:129] Top shape: 1 (1)
I0824 11:08:01.676123  9576 net.cpp:137] Memory required for data: 1152092184
I0824 11:08:01.676127  9576 layer_factory.hpp:77] Creating layer loss_map
I0824 11:08:01.676134  9576 net.cpp:84] Creating Layer loss_map
I0824 11:08:01.676138  9576 net.cpp:406] loss_map <- estdmap_p_conv3_0_split_1
I0824 11:08:01.676141  9576 net.cpp:406] loss_map <- densitymap_data_1_split_1
I0824 11:08:01.676146  9576 net.cpp:380] loss_map -> loss_map
I0824 11:08:01.676183  9576 net.cpp:122] Setting up loss_map
I0824 11:08:01.676189  9576 net.cpp:129] Top shape: (1)
I0824 11:08:01.676192  9576 net.cpp:132]     with loss weight 1
I0824 11:08:01.676214  9576 net.cpp:137] Memory required for data: 1152092188
I0824 11:08:01.676218  9576 layer_factory.hpp:77] Creating layer mse_count
I0824 11:08:02.406401  9576 net.cpp:84] Creating Layer mse_count
I0824 11:08:02.406430  9576 net.cpp:406] mse_count <- EstdCount_EstdCount_0_split_0
I0824 11:08:02.406442  9576 net.cpp:406] mse_count <- GTCount_GTCount_0_split_0
I0824 11:08:02.406450  9576 net.cpp:380] mse_count -> mse_count
I0824 11:08:02.406653  9576 net.cpp:122] Setting up mse_count
I0824 11:08:02.406666  9576 net.cpp:129] Top shape: 1 (1)
I0824 11:08:02.406671  9576 net.cpp:137] Memory required for data: 1152092192
I0824 11:08:02.406677  9576 layer_factory.hpp:77] Creating layer mae_count
I0824 11:08:02.406699  9576 net.cpp:84] Creating Layer mae_count
I0824 11:08:02.406705  9576 net.cpp:406] mae_count <- EstdCount_EstdCount_0_split_1
I0824 11:08:02.406709  9576 net.cpp:406] mae_count <- GTCount_GTCount_0_split_1
I0824 11:08:02.406716  9576 net.cpp:380] mae_count -> mae_count
I0824 11:08:02.406800  9576 net.cpp:122] Setting up mae_count
I0824 11:08:02.406808  9576 net.cpp:129] Top shape: 1 (1)
I0824 11:08:02.406812  9576 net.cpp:137] Memory required for data: 1152092196
I0824 11:08:02.406816  9576 net.cpp:200] mae_count does not need backward computation.
I0824 11:08:02.406818  9576 net.cpp:200] mse_count does not need backward computation.
I0824 11:08:02.406821  9576 net.cpp:198] loss_map needs backward computation.
I0824 11:08:02.406826  9576 net.cpp:200] EstdCount_EstdCount_0_split does not need backward computation.
…
